FastAPI/model_weights.pth (torch, 236517 bytes, 10 tensors)

classifier.0.weight f4 [28, 1, 3, 3]
000000 35 7a 3c be b2 2a a2 bb 78 dd e3 3d 97 13 b2 bc
       -0.18405993 -0.0049489373 0.11126226 -0.021737857
000010 62 af 4a be 6d ab 7a be 56 74 85 ba f8 c0 34 3e
       -0.19793466 -0.24479456 -0.0010181766 0.17651737
000020 d7 bd a2 3e 09 9e 79 3e d7 14 a5 bc 81 19 ae be
       0.3178546 0.24376692 -0.020151539 -0.34003833
000030 bf 45 62 3e 5c 14 4e be 90 6b 8f 3e 18 ff 85 be
       0.22096919 -0.20124954 0.2801175 -0.26171184
000040 c1 6a a9 3e 77 5c 50 3e ec 2a 02 be 24 d9 7f 3d
       0.3308926 0.20347773 -0.12711686 0.06246294
000050 e0 06 52 3e 05 a0 83 be 32 f5 5d 3d 53 47 6f 3e
       0.20510435 -0.25708023 0.054188915 0.23367052
000060 2d 7e 9c 3e 21 27 53 be d8 d7 6c 3d f1 b1 ad 3d
       0.30565014 -0.20620395 0.057823032 0.08481205
000070 8c 78 97 3e 91 a2 2f 3e 26 83 7c 3d 57 77 06 3e
       0.29584157 0.17151858 0.06164851 0.13131462
000080 75 49 0b be 67 e1 8d be 5e 4d aa bc 3b a0 f4 bd
       -0.1360224 -0.2771103 -0.020788845 -0.11944624
000090 75 32 32 3d e3 cd 26 3d 01 c6 b0 3e 35 b9 93 3d
       0.04350515 0.040723693 0.34526065 0.0721306
0000a0 4e c2 e6 3d 2a 9b 72 be 21 09 2f bc e0 fa d7 3d
       0.112675294 -0.23692003 -0.010683329 0.105458975
0000b0 92 7a d1 3d 49 3f 98 3e ec 37 21 be 0a e6 a7 3e
       0.102284566 0.29735783 -0.15743989 0.32792693
0000c0 c8 20 a3 be 33 43 00 3e 7c a2 fb 3d 76 f9 a4 be
       -0.31860948 0.12525634 0.12286851 -0.32221574
0000d0 2e 46 90 be 07 ec 26 3e f9 01 44 3d aa f3 11 bd
       -0.28178543 0.16300975 0.047853444 -0.035632767
0000e0 66 a5 15 be 22 78 5a bd 51 b0 97 3b 02 18 8e be
       -0.14613876 -0.053337224 0.004629173 -0.27752692
0000f0 60 f8 52 be d3 aa 71 be 83 a9 8a 3d f8 8e cc 3d
       -0.2060256 -0.2360032 0.06770613 0.099882066
000100 08 71 db 3d 37 ce 84 3e e0 c8 c2 bd 77 ce 34 be
       0.107149184 0.2593858 -0.0951097 -0.17656885
000110 e8 4d 7d bd 42 c3 64 be 58 a6 6f 3c ab d5 bb bd
       -0.061841875 -0.2234011 0.014627062 -0.09171613
000120 cf 9f be bd e3 e4 3c be 41 9b 37 3d 06 85 86 be
       -0.09307825 -0.18446688 0.044825796 -0.26273364
000130 10 6a 81 be e2 96 6d 3e 16 e8 a6 bb e8 51 cc bb
       -0.25276232 0.23202088 -0.005093585 -0.00623535
000140 30 b5 30 bd d0 33 88 be 06 1d 3d 3e 97 c2 5f 3d
       -0.043141544 -0.2660203 0.18468103 0.054628935
000150 4c e6 70 3d 62 c8 1f be a1 ae 81 3e ed da ba bd
       0.05881338 -0.15603784 0.25328544 -0.09123788
000160 80 55 b8 bd aa 81 38 bd 5d 9a 4b bd 98 bb 8c 3e
       -0.09000683 -0.045045532 -0.04970776 0.27486873
000170 bd 76 50 be 45 05 e2 3d 26 a3 a0 be 9b 84 b3 be
       -0.20357795 0.11036161 -0.31374472 -0.35062107
000180 9a 37 8c 3e a6 61 85 3e 16 d6 9f 3e 59 a0 7b be
       0.2738617 0.26051062 0.31218022 -0.24572887
000190 b6 68 cf 3d f2 45 80 bd e6 d3 6c 3e 3f 33 74 bd
       0.10127394 -0.06263341 0.23127708 -0.059619185
0001a0 31 ec ac be e1 a0 b3 3c 60 a0 02 3e be df 47 3e
       -0.3377395 0.021927299 0.1275649 0.19518945
0001b0 f1 50 20 bd 16 30 5c bd bf 82 9b 3e 8c db 75 bd
       -0.03913969 -0.053756796 0.3037319 -0.06002383
0001c0 fa cb 87 3c c4 5e a5 bd db 69 73 3d 3c c1 6d be
       0.016576756 -0.08074716 0.059427124 -0.23218244
0001d0 e7 71 27 3c f0 f7 8f bd f1 28 33 be 65 72 87 be
       0.0102200275 -0.07029712 -0.17496087 -0.26454464
0001e0 70 c8 31 be 08 ee 30 3e 62 42 2f 3e b2 f2 56 3c
       -0.17361617 0.17278302 0.17115167 0.0131193865
0001f0 33 5c 88 3e 70 8d 82 3e 50 33 e7 3b 25 17 ba 3e
       0.26632842 0.25498533 0.0070556775 0.36345783
000200 51 26 96 be 6f 4d ae 3d d3 f1 ca 3d 07 94 d2 3d
       -0.29326108 0.08510863 0.099094056 0.1028214
000210 3d 7f b6 3e b8 8c 3c be c9 4a bc 3d 24 6b 22 be
       0.3564395 -0.18413055 0.09193952 -0.15861183
000220 08 05 3b 3e 03 54 35 3e ec c8 a4 3c 00 b3 de 3d
       0.18263638 0.17707829 0.020115338 0.10873985
000230 1d 34 ea 3d 1c 42 00 3e 57 83 0d be 75 b8 5d bd
       0.11435721 0.12525219 -0.13819633 -0.05413099
000240 ef 40 12 be ca d9 cd bd b6 33 23 be 12 49 75 3e
       -0.14282583 -0.100513056 -0.15937695 0.23953655
000250 e9 11 ac 3e cf 96 66 be 6d a2 9f be b6 f9 ca 3d
       0.33607414 -0.22518466 -0.3117861 0.0991091
000260 df 20 8e bd 33 0e 5e be 2c e6 87 be 87 27 20 be
       -0.069398634 -0.21685104 -0.26542795 -0.15640078
000270 d8 0b 5c 3e c1 58 9c 3e 79 09 da bb 3e 46 0e be
       0.21488893 0.30536464 -0.0066539613 -0.13893983
000280 60 6c 56 be 0c 82 19 3e fc 70 87 3d cb aa f1 bd
       -0.2093978 0.14991015 0.06613347 -0.11800154
000290 b2 e0 64 3e 9f fc bb 3e 2f 59 00 be 15 91 12 3d
       0.2235134 0.36716172 -0.12534021 0.035782892
0002a0 d5 b8 5a 3e f3 96 fd 3c 24 f3 63 3e 5f 8b 34 be
       0.2135957 0.030955767 0.2226072 -0.17631291
0002b0 c8 76 be bd 9a 63 d9 bd 0d 6a d9 bd ef 31 82 3e
       -0.092999995 -0.106147006 -0.10615931 0.2542872
0002c0 9a 93 8d be ed 7a 9f 3d 39 c3 a2 bc f3 dc 07 3e
       -0.27651674 0.07787118 -0.01986848 0.13267879
0002d0 e9 33 b2 be 97 1b 6d 3e 43 a4 a4 bd 59 92 5c bd
       -0.3480523 0.23155056 -0.08039143 -0.053850506
0002e0 b2 e8 d5 bd 8d c0 0d 3e e6 df 7b 3d 43 ab 95 be
       -0.10444774 0.13842984 0.061492823 -0.29232225
0002f0 20 72 9e be 7d 1d cb 3b b7 93 92 be 5b 2a a6 3e
       -0.30946445 0.0061985836 -0.28628322 0.3245419
000300 ce ef 09 be 28 07 50 be b5 ae 81 3e 21 66 46 bd
       -0.13470384 -0.2031523 0.25328603 -0.04843724
000310 41 e2 8a be 58 73 81 3e 4d aa 92 3e d8 64 4a bd
       -0.27125743 0.25283313 0.28645554 -0.04941258
000320 0e 9c 8b be 3f e5 58 bd 97 f8 32 be 7d 5a e1 bb
       -0.27267498 -0.052953 -0.17477642 -0.006877242
000330 82 13 85 bd e3 79 75 3e e4 5b 9d be a8 0f 95 3e
       -0.064978614 0.23972277 -0.3073417 0.29113507
000340 1f 22 19 3e 5e 58 7f 3e ae 8d a5 be 99 39 89 be
       0.14954422 0.24936053 -0.32334656 -0.26801756
000350 8d 77 9b 3e 20 b7 41 be a8 4b 7e be f8 9b 99 3c
       0.30364648 -0.18917513 -0.24833548 0.01875113
000360 bf 6f 63 3e 9b 17 ef bd 49 00 e2 bd fe 37 93 3e
       0.22210597 -0.11674424 -0.11035211 0.28753656
000370 ed de de bd 84 d0 76 3e 2d 8c 7b 3e f7 f8 db 3d
       -0.108823635 0.2410298 0.24565192 0.10740846
000380 60 fc 94 3d da 5e 29 bd c3 3e 8f 3e 34 eb 80 3d
       0.07274699 -0.041350223 0.2797757 0.062948614
000390 7e a0 8e 3e 15 61 96 3e 55 bd 75 be b4 b4 86 3e
       0.2785682 0.29370943 -0.23998006 0.2630974
0003a0 45 c1 85 be 5c b9 38 3e ac 1c 80 3d e5 ae 90 be
       -0.26124015 0.18039459 0.06255469 -0.28258434
0003b0 16 7d 92 bd 4e b3 15 3d ea 0c cf bc fa e4 47 3b
       -0.071527645 0.03654795 -0.025274713 0.003050147
0003c0 cf 70 7f bd 5f 05 87 be 8e 69 18 be b1 09 97 3d
       -0.062363442 -0.26371285 -0.14884016 0.07374895
0003d0 3f 9c fc 3c 43 ea ab 3d 07 66 19 3e a5 0e 31 bd
       0.030836223 0.08394291 0.14980327 -0.043226857
0003e0 d5 3b 42 be cd a9 41 3d 4f 73 9f 3e a8 1e a0 3e
       -0.18968137 0.047281075 0.3114266 0.3127339

classifier.0.bias f4 [28]
000000 e6 1c 99 be 82 82 26 be 6e 77 bd 3d 3c 18 41 3e
       -0.2990486 -0.16260722 0.09251295 0.18856901
000010 cb a9 d5 3d ec 10 8f be 67 ce 9a be 6e f9 28 be
       0.10432776 -0.27942598 -0.30235597 -0.165014
000020 70 c2 60 ba ab 3d d2 bd ac d4 8b be 1b ce 74 be
       -0.00085738953 -0.102656685 -0.27310693 -0.23906748
000030 84 e2 54 be 71 74 85 be 3d 53 da bd af 25 04 3e
       -0.20789534 -0.260654 -0.10660408 0.12905
000040 9e cd 34 3d 36 ad 9a be 64 89 75 be 1f cd e8 bd
       0.044141404 -0.30210274 -0.23978192 -0.11367249
000050 ed f5 a0 be 7c e7 e7 bd 9d d7 9e 3e 80 d3 76 be
       -0.31437626 -0.11323449 0.31023875 -0.24104118
000060 0d 39 4e 3d b0 12 5a bd 0f 5b 05 be 36 e2 81 3e
       0.050347377 -0.053240478 -0.13023017 0.25367898

classifier.2.weight f4 [28, 28, 3, 3]
000000 69 42 86 bb 88 9e 17 bd 91 8f 5f bd 35 86 b2 bc
       -0.004097272 -0.03701642 -0.054580275 -0.02179251
000010 3c 4e 31 3d ec 9d 1d bd 7c 01 b8 3c 0b cc 99 3b
       0.0432875 -0.038480684 0.022461645 0.0046935133
000020 3f b5 13 3d 6a bd e4 ba 60 93 a1 3a 54 fc 85 3c
       0.03606152 -0.0017451469 0.0012327246 0.016355671
000030 57 69 8b 3c 51 17 b6 3d 86 5c 41 3d 64 2a 18 3e
       0.017018003 0.08891166 0.047207378 0.1485992
000040 7b 52 52 3d 6c 7f fe 3a 30 53 3b 3d bf 5d f0 bc
       0.05134819 0.0019416637 0.04573363 -0.029341577
000050 70 e8 a7 3c 88 d7 9f 3c 5d 0a 83 3d 90 4a bd ba
       0.020496577 0.019511953 0.06398461 -0.0014441777
000060 10 95 6a 3b ec 62 f2 3c f2 1b 59 bc 33 c9 d0 3b
       0.0035794415 0.029588185 -0.013251292 0.006371641
000070 df 13 94 3c 74 43 6b 3d 60 7e b0 3b a2 0e a1 3a
       0.018075882 0.057437375 0.005386159 0.0012287686
000080 b9 a0 d1 bc ef 50 6e bc e3 4b 05 3c 8f bc e5 3c
       -0.025589334 -0.014545663 0.008135769 0.028044013
000090 4b e2 ef 3c e4 69 c1 bc 7e 5f 9c bc ec a8 0d bb
       0.02928271 -0.023610063 -0.019088503 -0.0021615578
0000a0 f8 0e cb 3c 0f 44 4b bd c7 24 49 3c 84 22 d5 ba
       0.024787411 -0.049625453 0.012276835 -0.0016260897
0000b0 c6 85 5b 3d 8c 81 3f 3d be 94 0c bc 1a 1e 99 3d
       0.053594373 0.046754405 -0.008580385 0.074764445
0000c0 52 64 8a 3d e9 1a af bc 0f 15 18 bd 9d 51 a9 3c
       0.06757416 -0.021375136 -0.037129458 0.020668799
0000d0 fd 9f 65 3d 3d a4 ca 3a 0c 52 ae 3c 0c 79 94 bd
       0.05606078 0.0015460324 0.021279357 -0.0724965
0000e0 fc 2d 58 3d db a7 aa 3c a8 94 5e bd 61 b6 f8 3c
       0.05277823 0.020831993 -0.05434099 0.030360403
0000f0 25 2f 17 3b d8 65 d6 bc 38 d4 01 bd f6 60 3b 3c
       0.0023068872 -0.02617161 -0.03169653 0.0114366915
000100 24 b2 19 bd 65 0b 18 3d 0f 52 f0 bc eb 06 04 3c
       -0.037523404 0.03712024 -0.029336004 0.00805829
000110 ff 38 60 3d 03 51 9e 3c e0 ac 96 bc 69 42 14 3c
       0.054741856 0.019325739 -0.01839298 0.009049037
000120 a7 68 3e 3d 70 f3 85 3c 25 ee 45 3d 5b 0f 82 bc
       0.046486523 0.016351432 0.048322815 -0.015876463
000130 4b 7d 2e bc 6f 6b 13 3d 2a a7 43 bd d7 b3 0b bd
       -0.010649989 0.03599113 -0.047766842 -0.034107056
000140 7f cb c6 3b 98 3e 65 bd 39 3a c4 3c 37 b1 a5 3d
       0.006066739 -0.055967897 0.023953544 0.08090442
000150 8a 7e 0e bd 2f 11 4d 3d 74 e0 44 3d c6 60 82 3b
       -0.034788646 0.050065216 0.048065618 0.0039788214
000160 b1 bb 8e 3c 2d 6d 48 3d fb 14 53 3c f8 ad 84 bd
       0.017423483 0.048932243 0.01288342 -0.064784944
000170 90 3b 93 3d 57 cc c3 3d 79 d2 ad 3d 23 f7 c4 bc
       0.07189095 0.09560459 0.0848741 -0.024043625
000180 4c b8 62 3d e2 48 eb bc 42 66 1d 3d ef 4c 39 bd
       0.05535154 -0.028721277 0.0384276 -0.045239385
000190 72 a1 38 bc f9 87 5d 3d c4 8a 4f 3d 41 2d 34 bd
       -0.01126896 0.05408475 0.050669447 -0.04398847
0001a0 f4 2c c5 3c 68 c1 eb bc 94 f3 74 bc 00 51 94 bd
       0.024069287 -0.028778747 -0.014950652 -0.07242012
0001b0 fd 5a 36 3d a5 91 ba bc ea 9c 9b bd 93 d8 8f bd
       0.044520367 -0.022774527 -0.07598288 -0.0702373
0001c0 90 20 29 3c 2a 1f 83 bd 28 58 2a bd a9 43 18 3d
       0.010322705 -0.064024284 -0.04158798 0.0371739
0001d0 f7 e6 25 bd d9 ee 2a 3d 7e 42 5a bd 7c 1b d3 3b
       -0.04050347 0.04173169 -0.05328607 0.0064424854
0001e0 51 2d 27 3d a8 76 a2 3b 4c 20 f5 bc 19 fc f0 39
       0.0408147 0.0049579926 -0.029922627 0.00045964195
0001f0 02 70 b8 bc 9e 4b 2f 3c 9b b8 ec 3d eb a5 92 3d
       -0.022514347 0.010699181 0.11558648 0.071605526
000200 de 5b c2 3d 27 49 c6 3d 64 52 6a 3c c0 f9 1b 3d
       0.094901785 0.096819215 0.01430187 0.038079977
000210 3d 17 0f 3c 02 38 24 3d e9 11 a2 3d 64 a6 0a 3c
       0.008733568 0.040092476 0.07913572 0.008462522
000220 67 89 82 3d 64 c9 16 3d 73 83 8e 3c 5a 0f 82 3d
       0.06373864 0.036813155 0.017396664 0.06350584
000230 14 e2 bf 3d ce 29 a5 3d dd e4 6a 3d da f9 55 3d
       0.09369293 0.08064614 0.057347167 0.05224023
000240 ca 09 13 bd 20 bd 0c 3d 9b b4 84 3c 19 18 4c bd
       -0.035898007 0.03436005 0.0161994 -0.04982767
000250 0d f3 57 bc 67 4d b9 3b 94 71 9b bc 64 c3 8f bc
       -0.013180506 0.005654979 -0.018975057 -0.017549224
000260 5f 47 27 bd 3b 80 8d bd 52 03 d8 3b 76 63 a6 3b
       -0.04083955 -0.06909224 0.0065921927 0.0050777746
000270 93 2d 09 3d ec f7 2e bd 26 73 83 3c dc 66 13 bd
       0.03349073 -0.042716905 0.016046118 -0.035986766
000280 ff 3c 0e bd b7 d2 c2 3d 97 68 12 3d 2e db 36 3d
       -0.03472614 0.09512847 0.035744276 0.04464262
000290 e4 30 40 3d 1a 62 64 3d 98 ff 2b 3d 92 05 0f 3d
       0.046921626 0.05575762 0.0419918 0.03491742
0002a0 f0 5c 54 3d 22 7c 77 3c 3f f3 b6 3b dc 0e 76 b9
       0.051846445 0.015105279 0.0055831964 -0.00023465924
0002b0 f2 4a 90 bd b2 41 1c bd 72 c7 82 3d 71 ce 3a bd
       -0.07045545 -0.03814859 0.063856974 -0.045607034
0002c0 80 8d 20 bd d0 d3 87 3b 4a 25 5f 3d ca 5a 68 3d
       -0.039197445 0.004145123 0.05447892 0.05672721
0002d0 8d 5b 9d bc 6b 80 c1 bc 76 31 7e bd 1d 3d 19 3c
       -0.019208694 -0.023620805 -0.06205889 0.009352949
0002e0 97 f8 e4 bc f1 0c ed bc bc 85 3f bc 88 c0 ef bc
       -0.027950568 -0.028936835 -0.0116896 -0.02926661
0002f0 12 9e e8 bc 24 4e 52 bd 95 77 9b bc 68 af 32 ba
       -0.028395686 -0.051344052 -0.01897792 -0.00068162987
000300 89 69 19 bc 5c 12 14 bc fb 17 02 3b 83 c1 52 bd
       -0.00936354 -0.00903758 0.001985072 -0.05145408
000310 00 af 39 bd 81 ac 61 bd 3b ab ed bc 40 9a 47 bd
       -0.04533291 -0.055096153 -0.029012313 -0.04873109
000320 23 73 95 3c 62 79 c1 3c 28 7a c7 ba 59 78 3a bd
       0.018243378 0.02361745 -0.00152189 -0.04552493
000330 b0 dc 7b bd 4a 75 16 bd 14 65 72 3d d6 b3 42 3d
       -0.06148976 -0.03673295 0.059178427 0.047534786
000340 8b ae 36 3c 61 b7 12 3d 48 1e 59 bc c9 9c d5 3c
       0.011150013 0.035819415 -0.0132518485 0.026075738
000350 0d 4d 37 3d da 8a 47 3d fc 6c 2b 3d 55 1c 38 3a
       0.044751216 0.048716404 0.041851982 0.0007023265
000360 60 88 7c 3d 34 34 ee 3c 0e 8e 3c 3d fa ef 00 3d
       0.061653495 0.029077627 0.04603391 0.03147886
000370 9d ac 9e 3d 02 5d 69 3d 2b 99 ba 3d 42 15 89 3d
       0.07747767 0.056973465 0.09111246 0.06693508
000380 b6 de 65 bc aa 4a d6 3d b8 ac b7 3d 63 4b b7 3d
       -0.014030149 0.1046346 0.0896849 0.08949926
000390 b1 0b 92 3d 5e 1f 6e bc d1 ea 86 bc 7f ac 84 bd
       0.07131136 -0.014533846 -0.016469391 -0.064782135
0003a0 7a 11 2a bd 3d 56 6a 3d f5 50 a1 bd b2 d8 5b 3d
       -0.041520573 0.05721115 -0.078767695 0.053673454
0003b0 72 82 f6 bc 42 4b 99 3c de 3e d3 bb 01 09 8b bc
       -0.030091498 0.018712644 -0.0064467033 -0.016972067
0003c0 87 cf 34 bd f8 37 55 3d cf 27 15 3c b8 71 2f bd
       -0.044143226 0.05205533 0.009103729 -0.04283306
0003d0 28 9b 14 bc 98 04 b2 3d 3a 3f 2b 3d 98 5c a7 3d
       -0.009070195 0.086922824 0.041808344 0.08171958
0003e0 86 e7 51 bb 17 03 08 3d e5 6c 92 3d 36 f8 75 3d
       -0.0032028868 0.03320607 0.07149676 0.060051166
0003f0 da b0 09 bc 84 5c 10 bd ec 25 ee bc 2c 4d a1 3d
       -0.008403981 -0.03524448 -0.029070817 0.078760475

classifier.2.bias f4 [28]
000000 ac 5f 3f 3c d1 1c 7f 3d 03 91 16 bd fb 50 35 bc
       0.011680525 0.06228334 -0.036759388 -0.0110666705
000010 4b 9a 5d 3c bf e3 d9 3c d9 17 30 bd 94 6c 1d 3d
       0.013525556 0.026597856 -0.042991493 0.038433626
000020 b4 e1 90 3c 4e d3 78 3c 8a 65 d0 3c 26 18 2c 3c
       0.017685749 0.015187098 0.025439043 0.010503804
000030 6a 8d 20 bd 06 38 1e bd b5 e7 00 3c 48 37 4b 3c
       -0.039197363 -0.038627647 0.007867743 0.012403317
000040 79 2f 62 bd f0 6f 81 3c a3 ac 15 3d bb fc 0b 3c
       -0.055221055 0.015800446 0.036541592 0.008544142
000050 8b 5d 5c 3d 73 1d 5b bc 4b 21 b8 3b cc 9c 92 3d
       0.053800147 -0.01337372 0.005619203 0.07158813
000060 6d 57 b7 bc 06 9d 4c 3d 70 26 85 3c af af 2c bd
       -0.022380555 0.049954437 0.01625368 -0.042159732

classifier.6.weight f4 [56, 28, 3, 3]
000000 bd 99 c6 bc 1c 87 3e 3c fb 78 b5 bc 12 0c 36 bd
       -0.02424323 0.011628892 -0.022152415 -0.044445105
000010 b8 e2 02 3d c2 98 4c 3d 0d 83 54 3d 11 3f 46 3d
       0.031954497 0.04995037 0.051882792 0.04839999
000020 c5 ff 81 bb c4 02 45 3d fe bc 80 bd 82 9c 07 3d
       -0.0039672577 0.04809834 -0.062860474 0.03310824
000030 ec 3b cd bb c2 fc 33 bd 39 79 59 bc bb 05 17 bd
       -0.0062632468 -0.04394222 -0.013273531 -0.0368707
000040 92 74 6e bb 97 e7 b3 3c da 04 db bc 22 15 9f 3d
       -0.00363854 0.021961017 -0.026735712 0.07767703
000050 0f c2 57 3d fe 6d 86 3c 15 22 77 3d 1d 59 b0 3c
       0.052675303 0.01640987 0.060335238 0.021526868
000060 22 29 a3 3c 34 19 c3 3d 52 55 c6 3d 89 49 73 3b
       0.019917075 0.095262915 0.09684242 0.0037122688
000070 a8 bc 74 bd c9 19 e2 bc 48 f8 94 3b 32 55 ea 3b
       -0.05975023 -0.027600186 0.004546199 0.0071512694
000080 32 ce 9e bc 98 73 e5 ba 6b 93 40 bd 06 45 ab bc
       -0.019385431 -0.0017505763 -0.04701559 -0.020906936
000090 35 4c 84 3c a0 71 da bc 0f 5b f2 bc 7c c5 3b 3d
       0.01614962 -0.026665509 -0.029584436 0.045842633
0000a0 92 97 89 3d 41 94 3a 3d 42 95 8b 3d df 74 98 3d
       0.06718363 0.045551542 0.06815578 0.074441664
0000b0 98 b4 ed bc 03 04 11 3d 2b 15 01 bc b7 38 50 3d
       -0.029016778 0.035404216 -0.007878582 0.050835337
0000c0 6b bd a6 3d 44 03 80 3c 80 b0 99 3d 54 99 7c bb
       0.08141597 0.015626557 0.07504368 -0.003854354
0000d0 f2 aa d1 bb e8 aa f7 bb cb c8 25 3d 03 da 18 3d
       -0.006398552 -0.0075582154 0.040474694 0.037317287
0000e0 67 f5 ca 3c 3a 6c 45 3d ad 33 86 bc b4 bc 9a ba
       0.02477522 0.048198916 -0.016382063 -0.0011805505
0000f0 60 1d b5 3b ae cb cc 3c bc e3 17 3d 04 74 84 3d
       0.0055271834 0.024999466 0.03708242 0.06467441
000100 7e e2 9f 3c b4 83 8a 3d 67 65 1a 3d fe 28 df bb
       0.01951718 0.06763402 0.03769436 -0.0068103066
000110 82 74 1e 3d de f7 49 3d c7 ca 77 bc 11 5e c1 bb
       0.03868533 0.04930865 -0.0151240295 -0.005901106
000120 eb e9 7c 3d 2f b8 98 3d c7 5f 74 3d 08 91 ab bb
       0.06174652 0.07457005 0.059661653 -0.005235795
000130 c9 4c b5 3c 10 ce 82 3d 19 40 a8 bc 0f 2d 1a bc
       0.02213134 0.063869596 -0.020538377 -0.009410157
000140 1a 48 6e 3c 11 65 b1 3c 9f 08 82 3c f7 4a 54 3d
       0.014543558 0.021654638 0.015873251 0.051829305
000150 06 40 1a 3c de 42 b8 3d 82 a0 10 3c 73 2c b3 3d
       0.009414678 0.08997129 0.008827331 0.087487124
000160 f0 18 20 3d 74 21 3a 3d 3a 25 8d 3d dc 7c 7d 3d
       0.039086282 0.04544206 0.06891866 0.061886653
000170 e5 dd a2 3d 02 27 9d 3d 88 42 33 ba 7f 05 c9 3d
       0.07952479 0.07673456 -0.0006838222 0.098155014
000180 e5 e3 9b 3d 90 04 0d 3d 35 3a 8c 3d 27 bd 0a 3d
       0.07611827 0.03442818 0.068470396 0.033871796
000190 db 15 6a 3c 83 50 82 3c 18 aa d7 bc 4d 47 89 3d
       0.014287437 0.015907532 -0.026326224 0.06703053
0001a0 87 0b c6 b9 a8 9b 85 3d 85 3a 5f 3c 17 6f 2a bc
       -0.00037774091 0.0652383 0.013624792 -0.010402462
0001b0 9a 05 77 3c d3 8f 0a 3d cb ae b0 3d 0d cb a1 3c
       0.015077019 0.033828568 0.08627089 0.019750142
0001c0 2c e3 4e bc 04 b9 ae 3d 8a 67 23 3d ea 02 47 3d
       -0.012627404 0.08531383 0.039893664 0.048586763
0001d0 1e f8 96 3c 5d ac 30 3d b7 75 23 bc e7 c2 fd bc
       0.018428858 0.04313313 -0.009976796 -0.030976726
0001e0 1c d3 a4 3d 5e 4f 39 3d 5d ee 33 bc 98 81 ab bc
       0.080480784 0.045241706 -0.010982123 -0.020935819
0001f0 4e 14 90 39 43 ad 50 3d 15 f9 71 3d 9c 1a f3 3c
       0.00027480948 0.050946485 0.059075434 0.029675774
000200 35 f9 f6 3d 86 14 11 bc 08 25 b0 3d b1 20 cb 3d
       0.12059251 -0.008854991 0.08600813 0.09918345
000210 fa 6e 61 ba fb 2f 05 3d 2b 83 7c 3d 02 bd 3a bd
       -0.00085996056 0.03251646 0.06164853 -0.04559041
000220 a3 9d 5e bc 5a 42 f3 3b 2b 8e 1a 3d 06 5f 26 3d
       -0.013587388 0.007423681 0.03773324 0.040617965
000230 e8 59 93 3d ca fe 16 3c e9 40 8b bc 2b 06 31 bc
       0.07194883 0.00921602 -0.016998725 -0.010804693
000240 41 07 09 3d 06 5f 31 bd de 59 83 3c d0 9d 15 3d
       0.033454183 -0.043303512 0.016034063 0.036527455
000250 d3 5f 55 bd 6d 30 0e bd 47 2a a3 bc cb 20 6e bc
       -0.05209334 -0.03471415 -0.01991762 -0.014534186
000260 46 1f 52 3c 91 32 31 bd 4b 47 11 3c 61 76 7f 3d
       0.012824839 -0.043261115 0.008867095 0.062368754
000270 61 f8 0c bd 77 39 88 3d 37 bf 89 3c 90 f7 9a bc
       -0.03441656 0.066515855 0.016814811 -0.018916875
000280 07 43 bf 3c fe 96 85 3d b8 d1 fb 3b c8 17 89 3c
       0.02334739 0.0652294 0.0076849125 0.016734973
000290 32 0d 67 3c f7 9c 37 3d 9e 09 87 3d ef 05 33 3a
       0.014102267 0.044827428 0.06593631 0.0006829192
0002a0 fc 22 82 3d 06 80 61 3c 76 15 82 3d bc da b6 3c
       0.06354329 0.013763433 0.063517496 0.022321098
0002b0 4e a7 3a 3b 30 c7 a3 3d 3c 3d 97 bc 9a a3 66 bd
       0.002848107 0.079969764 -0.018461816 -0.056308366
0002c0 b4 ba 4c 3d c1 43 a9 bc 6b 9e d7 bc f5 31 c6 bc
       0.04998274 -0.02066219 -0.026320657 -0.024193743
0002d0 68 0e f2 3c 79 c2 ae 3c f8 b5 54 bc 91 01 18 3d
       0.029547885 0.021332966 -0.012982838 0.03711087
0002e0 9d 2a 98 3c 5c b7 9b 3c 5d 2a 88 3d 00 8b e0 3c
       0.018575007 0.019008331 0.06648705 0.02741003
0002f0 35 0c f2 3c 49 ed 50 bd d9 00 11 bd f4 1c d3 bc
       0.029546836 -0.051007543 -0.0354012 -0.025770642
000300 0b 50 85 bc fd 23 7c 3d 8c 04 a6 3d 04 56 1c bd
       -0.016273519 0.06155776 0.08106336 -0.03816797
000310 71 3c f6 bc bc 36 f9 bb 8c a0 86 3d af 71 b8 3d
       -0.030058118 -0.007605402 0.06573591 0.090060584
000320 12 5f f6 3d 78 8c 4d 3c 1e 1f 07 3d 0b a8 df 3d
       0.12029852 0.012545697 0.03298866 0.109207235
000330 d7 9b 18 3d 1a 34 88 bc d8 33 76 3d bb 74 93 3d
       0.037257995 -0.016626406 0.060108036 0.07199999
000340 88 d3 18 3d aa 32 f5 bc 65 a4 a8 3d f1 e5 6a 3c
       0.037311107 -0.029931385 0.08234481 0.014337049
000350 6f 6a c9 3c eb 2a 97 bc 75 ab 8d 3d d0 a9 97 3d
       0.024586884 -0.018453082 0.069174685 0.07405436
000360 d7 8f f0 bc 4c 1d 9f 3b 9c ec 9a 3d 37 07 ae bc
       -0.029365463 0.0048557874 0.07564661 -0.021243675
000370 a4 96 06 bd a6 bf 1b bc 20 0c 75 3d f4 e1 51 3d
       -0.032858506 -0.009506142 0.059826016 0.051240876
000380 fb c7 29 bc 60 a9 47 3d f4 0c 6b bc 86 1a b1 3d
       -0.01036262 0.048745513 -0.01434635 0.08647637
000390 34 fb bf 3d 98 ca 31 3d 61 75 d4 3d 76 aa 89 3d
       0.09374085 0.0434061 0.10373951 0.06721966
0003a0 ec c1 4e 3b b4 28 95 bc 1d 68 a5 bc 90 0d 41 bc
       0.0031548692 -0.018207885 -0.020191247 -0.011783019
0003b0 d8 51 ec 3c 2a 56 2d 3d 52 29 89 3d 7d a9 2e 3d
       0.02884762 0.0423185 0.06697334 0.042642105
0003c0 6b d8 5c 3d fa 72 c8 3d aa b1 16 3b 38 2e f8 bc
       0.05391733 0.09787555 0.002299408 -0.030295476
0003d0 ab 3b c1 bc b2 3b fc 3c 93 2a 0d 3d 7f e1 af bc
       -0.023588022 0.030790184 0.03446443 -0.02146983
0003e0 a4 69 0f bc 23 e2 14 bd b7 76 3f bd 99 76 76 bd
       -0.008753214 -0.036348473 -0.046744075 -0.060171697
0003f0 5e dd 8b 3d e4 54 9e 3d 7d 00 eb bb 8b fc 7e bc
       0.06829332 0.07731035 -0.007171689 -0.015563141

classifier.6.bias f4 [56]
000000 54 53 62 bd 1b 0a 44 3c 5e f5 93 3d be 97 75 bd
       -0.05525525 0.0119653 0.072245345 -0.059959166
000010 f2 a4 da bb 5b 65 0c bc f6 91 6a 3d d0 aa ae 3c
       -0.006672495 -0.008569087 0.057268105 0.021321684
000020 4f e8 60 3d 65 78 12 bd 3d 1d 44 3c 09 6d 35 bd
       0.054909047 -0.03575935 0.011969862 -0.044293437
000030 f0 7d b7 bc 66 f2 ea bb eb 12 7a 3c 9f aa 22 bd
       -0.022398919 -0.0071700094 0.015263299 -0.0397135
000040 38 db 28 3d b8 d0 53 bc 2b b0 23 bd 79 e1 9f 3d
       0.04122469 -0.01292818 -0.03996293 0.07806677
000050 67 5b 62 3b 17 e1 4f 3c 90 85 e4 bc 5d 4c 9c bc
       0.0034539343 0.012687943 -0.027895719 -0.019079382
000060 e6 28 31 3d 49 19 d9 3c ad 22 4a bd fa 8b 5e 3d
       0.043251894 0.026501315 -0.049349476 0.05433271
000070 9e 28 5f 3d 12 f6 04 3d aa b6 b7 bb be 0d 17 bd
       0.054482095 0.032461233 -0.005606492 -0.03687834
000080 d4 80 0e 3b c0 dc aa bc b7 8c 01 3d c2 9b 07 bd
       0.0021744268 -0.020857215 0.031628337 -0.033107527
000090 bb bd 30 bc 22 53 23 3d 8d 14 c6 ba e9 16 81 3c
       -0.010787423 0.039874204 -0.0015112326 0.015757995
0000a0 a0 94 53 3d 7a 6c 8e 3c 51 4a 78 bc fb f1 25 bd
       0.05165541 0.01738571 -0.015154437 -0.040513974
0000b0 a1 2e 1a 3d 10 48 98 3c 20 03 2f bd 6f 7f 25 bd
       0.037642125 0.01858905 -0.04272759 -0.040404733
0000c0 38 9b 13 bd 41 9f cf bb 2c 46 3a bc b4 65 83 3c
       -0.0360367 -0.006336123 -0.011369269 0.016039707
0000d0 33 f9 7c 3d ca bf 72 bc ec 00 3a 3d 26 f6 53 3d
       0.061761092 -0.014816234 0.045411035 0.051748417

classifier.8.weight f4 [56, 56, 3, 3]
000000 ee 32 6f 3d c3 47 ef 3c a8 ee 67 bc ba 8a c9 3c
       0.05839818 0.029209023 -0.014156021 0.024602283
000010 ca 91 10 3c 24 40 cb bc 94 ce ec 3c 22 e3 38 3c
       0.008823821 -0.024810858 0.028907098 0.011284621
000020 91 be dd 3c 5f 67 f3 bc 0a 37 0e 3d fa ff 38 3d
       0.027068408 -0.029712377 0.034720458 0.045165993
000030 e7 20 9a 3d 91 19 c4 3c 12 bf 9d 3d 49 1a 44 3d
       0.07525807 0.023937972 0.077024594 0.04787663
000040 f0 7e f2 bb cc 0d da 3c 21 a2 0d 3c b8 5d 86 bb
       -0.007400386 0.026617907 0.008644612 -0.0041005276
000050 d9 75 09 bd 92 5d ff 3c 2a a6 d8 bc 42 f2 04 bd
       -0.033559654 0.031172547 -0.02644642 -0.032457598
000060 76 20 32 bd c2 41 3e bd a3 c2 f3 3c e1 8b f9 bc
       -0.04348799 -0.04644943 0.029755896 -0.030462207
000070 29 e2 c4 ba 1a f8 a6 bc 26 8a 7d 3d 56 94 01 3c
       -0.0015021014 -0.020381976 0.061899327 0.007908901
000080 c0 a1 21 3d 66 48 d7 3b b3 71 6c 3d 0a 7b 9d 3d
       0.039460897 0.00656991 0.05772562 0.076894835
000090 4e 6c f7 3c fd 3e 01 bc 21 7c d1 bc 45 6d 3e 3c
       0.03020301 -0.007888553 -0.025571885 0.011622732
0000a0 30 58 2c 3b ef ee 5b 3d f6 d5 63 3d 8f eb 04 3d
       0.002629768 0.05369466 0.05562397 0.03245121
0000b0 0f 53 94 3d 79 c9 45 3d c5 e1 1f bb 5a 77 dc bc
       0.07242405 0.048287842 -0.0024396044 -0.02691238
0000c0 55 1e c9 bc e3 c3 36 3d 29 88 c0 3b 7c c8 78 bc
       -0.024550596 0.044620406 0.0058756066 -0.015184518
0000d0 f4 94 20 3d 38 3c cb bc e7 23 6a 3d bf b5 85 3d
       0.039204553 -0.024808988 0.057163145 0.06528806
0000e0 4e 11 c6 bc 05 47 37 3d 42 9e 4a 3d 7d 70 2e 3d
       -0.024178173 0.044745464 0.049467333 0.042587746
0000f0 8e 72 85 ba 2d 01 07 3d 12 47 80 3d 4c 3f 1e bc
       -0.0010181235 0.032960106 0.062635556 -0.009658646
000100 44 0f 80 bc 9b 09 6b bc 9e 8c 4b 3d 13 17 a6 3d
       -0.01563228 -0.014345552 0.04969465 0.0810987
000110 6d 40 b3 bb eb 50 01 bc 5d 3b 72 3d 7d f8 42 3d
       -0.0054703266 -0.0078928275 0.059138644 0.04760026
000120 0c ca e1 bc 14 67 43 3d c4 fb 1a bd c3 df 0b 3d
       -0.027562164 0.047705725 -0.03783776 0.034148943
000130 2d 84 93 3c 64 c4 29 3d 55 09 0a bd 8c 3a 2f 3d
       0.018007362 0.04144706 -0.033700306 0.042780444
000140 1e 59 23 3c b7 43 06 3d df c4 13 3d 37 2d ca 3c
       0.009969978 0.03277942 0.036076423 0.024679763
000150 10 04 bc bb f8 df 4b 3d f8 47 3d 3d 7a 8d 65 3c
       -0.005737789 0.04977414 0.046211213 0.014010781
000160 73 f3 56 3d 31 ba 40 3d 3d 3c 01 bc e3 0a 38 3c
       0.052478265 0.047052566 -0.007887897 0.011233064
000170 53 96 a0 3c 5a 5b 03 bd 9a c4 0c bd 80 e8 01 3d
       0.01960293 -0.03206954 -0.03436718 0.03171587
000180 0c 79 48 bc 77 25 ab 3d c9 8d 46 3d 8a a4 0f 3d
       -0.012235891 0.08356755 0.04847506 0.035069026
000190 65 27 de bb ac 7e ec bc d5 db 9f 3d 4e 26 84 3d
       -0.0067795985 -0.028868996 0.078056015 0.064526185
0001a0 3d 83 e1 bc 4d a3 8f 3d 2b 42 81 bc 6c 3d 24 3d
       -0.0275284 0.07013569 -0.015778622 0.04009764
0001b0 98 e9 09 3d 35 2e 3a bc 67 e2 f1 3c 4d 6c 86 3c
       0.033670038 -0.011363556 0.029526902 0.016409064
0001c0 29 4f 07 3b 23 57 f2 bc d6 dc f0 3c a1 eb 06 3c
       0.0020646548 -0.029582566 0.029402178 0.008234889
0001d0 9f b1 dd bc 15 9e 0e 3d 74 61 fe 3c 70 e9 84 bd
       -0.027062235 0.034818728 0.031052329 -0.06489837
0001e0 6b a9 d0 3c 32 10 b3 3b a9 38 ed b9 7e 01 69 bd
       0.02547141 0.005464577 -0.00045246378 -0.05688619
0001f0 f9 53 19 3b 39 06 7f 3d c1 3c 39 3c e6 c7 22 bd
       0.0023396 0.062261794 0.011305989 -0.03974142
000200 0d 99 05 bd be 8a a4 3c e7 f1 6e 3b ad f7 ea bc
       -0.032616664 0.020085689 0.0036460103 -0.028682554
000210 5a 73 25 3b 7a 8f 9e 3c 96 c8 ba 3c b1 b3 66 3c
       0.0025245757 0.019355524 0.022800725 0.014080928
000220 08 49 92 3c c8 ef 5b 3c 82 08 e9 3c c5 4f 0a 3d
       0.01785709 0.0134238675 0.02844644 0.03376748
000230 3a 95 2f 3d 74 31 d2 b9 15 52 49 3d 85 6b d4 3c
       0.042866923 -0.00040091167 0.049150545 0.025930176
000240 23 45 9e bb c2 a6 65 3b 30 81 5d 3d 43 e6 1e 3c
       -0.004830019 0.0035042022 0.05407828 0.009698453
000250 8c 61 bc bb 56 ae 95 bc 8c 1b 00 3d 47 7b a5 3c
       -0.005748933 -0.018271606 0.03127627 0.020200385
000260 9c fd 2e 3d 13 ae 46 bc 87 47 53 3d 9b cc 75 bc
       0.04272233 -0.012126463 0.051581886 -0.015002395
000270 84 0e e1 3c 6c 7c 41 3c 12 66 13 bd a7 14 2e 3d
       0.027472742 0.01180945 -0.035986014 0.042500164
000280 e9 bc 15 bd 0d 83 33 3d 4b a4 b2 3b 00 83 66 3d
       -0.036557112 0.04382615 0.005451714 0.056277275
000290 b9 20 6a 3d 7e e4 06 3d 3b ba 73 3c 17 b6 46 3d
       0.057160113 0.03293275 0.014875944 0.0485135
0002a0 e6 8d 29 3c 5a 2c 0e 3d 3b 0d 65 3d 75 70 fb b9
       0.010348773 0.034710266 0.05592082 -0.00047958238
0002b0 40 a7 02 3d 91 9e 22 bd b6 3b 60 bc d7 3d 17 bd
       0.031897783 -0.039702002 -0.013686111 -0.03692421
0002c0 ef b1 24 3d 96 24 ce 3c 3d ca 34 3c 52 6a 0d bd
       0.040208753 0.02516393 0.0110345455 -0.034525223
0002d0 ed ec e8 bb f7 85 be 3c c4 fb 18 bd 3a df e1 3b
       -0.007108322 0.023257239 -0.037349477 0.0068930658
0002e0 93 63 e2 3c f8 d6 d0 3c b3 07 58 bd 55 f4 a3 3c
       0.027635371 0.02549313 -0.052741718 0.020013968
0002f0 4b 83 35 bd a8 d1 2e bc 82 89 27 3d 50 d0 c1 3b
       -0.044314664 -0.010670103 0.040902622 0.0059147254
000300 9f 8e 89 3d cb fd d0 3c 40 93 29 3d b6 4d 00 bc
       0.06716656 0.025511643 0.041400194 -0.007831028
000310 13 c8 6c 3d 59 4c 92 bc 35 70 2e 3d c0 02 83 3c
       0.057807993 -0.017858671 0.042587478 0.015992522
000320 8b 90 79 bc 00 e0 a8 3c 44 73 a3 bc 4c 70 d0 bc
       -0.015232216 0.020614624 -0.019952424 -0.025444172
000330 19 2f eb bb 1f a0 00 3d 25 38 34 3b 4c 25 5d 3c
       -0.0071772453 0.031402703 0.0027499285 0.013497662
000340 c3 c0 c7 3b c6 de e1 bb d7 dc 31 bd 44 f1 33 bd
       0.006095977 -0.0068930117 -0.0434235 -0.04393126
000350 05 b3 4e 3c 72 70 4f bd 55 95 a3 ba 31 1b a2 bc
       0.012615924 -0.050644346 -0.0012480417 -0.019788356
000360 ca ab f8 3a df 2d 95 3b 8b 04 a6 3c 7c 44 93 bc
       0.0018972096 0.0045525874 0.020265838 -0.017976992
000370 63 69 15 bd c5 4c 5a 3c d0 d2 41 bc 08 0f 60 bb
       -0.036477458 0.013323967 -0.011830047 -0.0034188647
000380 05 6c 51 bb d6 7a 64 bd 71 fa 5c 3d 7e 1a b1 3c
       -0.0031955254 -0.055781208 0.053949777 0.021619078
000390 fb 3a cd bc 57 48 5a 3d b9 f6 29 3b 24 91 f1 3c
       -0.025052538 0.053291645 0.0025934412 0.029488154
0003a0 39 44 63 3d fd 6a 2c bc df af f2 bc fb 74 e0 3c
       0.055484984 -0.010523555 -0.029624877 0.02739953
0003b0 13 22 33 3c 39 23 86 3b 09 2b 30 bd d5 5c 83 3c
       0.010933417 0.0040935543 -0.04300979 0.016035477
0003c0 44 47 23 bd 2f 0e cd 3c a0 32 72 3c 61 78 52 bd
       -0.039862886 0.025031177 0.014782578 -0.051384334
0003d0 cf 55 bf bc c6 13 a4 3c df b6 a5 bc e8 be 15 bd
       -0.023356346 0.02002896 -0.020228801 -0.036559016
0003e0 16 cf c8 bc 47 66 45 bd 44 6c 7e bc 4f b5 f8 bb
       -0.024512809 -0.048193242 -0.015528742 -0.007589973
0003f0 25 46 06 3d 30 3e 76 bb 7c 75 fd 3c a4 a7 b6 bc
       0.03278174 -0.0037573688 0.03093981 -0.022296734

classifier.8.bias f4 [56]
000000 87 99 ff 3c c7 06 82 3c 0e a0 37 3d 3a dc f5 bc
       0.031201137 0.015872372 0.044830374 -0.030012239
000010 1d 48 c4 bc 40 ba 1a bd 37 ef 92 3b 69 56 35 bd
       -0.023960168 -0.037775278 0.004484083 -0.04427186
000020 2d 73 1c b9 bc 0c b6 bc a6 ed c4 3b 61 58 be bb
       -0.00014920226 -0.02222287 0.006009775 -0.0058088754
000030 cd 8e 14 bd 85 ec 1e bd 68 88 f8 bc 52 2d 61 3c
       -0.036268998 -0.03879978 -0.030338481 0.013743715
000040 fc d5 49 bd 52 cc 36 bd bd 7d 0e 3d b1 9d 51 bd
       -0.049276337 -0.04462845 0.034787882 -0.051175777
000050 b6 64 24 bd b4 e2 d2 3c 6c d1 e4 3c 36 4c a5 bc
       -0.040135108 0.025742866 0.027931891 -0.020177942
000060 ee fd 61 3d 46 c2 6c 3b 5d ae aa 3b 63 02 83 3c
       0.055173807 0.0036126538 0.005208774 0.015992349
000070 dd dd b1 bc 9d a8 45 bd 47 a4 57 bb e0 11 fb bc
       -0.021712238 -0.048256505 -0.0032904313 -0.030648172
000080 94 3d ec 3c 18 00 01 3d f3 98 c8 bc ec e5 2b 3d
       0.028837956 0.03149423 -0.024486994 0.041967317
000090 67 65 26 3d aa 09 13 3c 13 96 25 bd 0b 32 b6 3b
       0.04062405 0.008974472 -0.040426325 0.005560165
0000a0 63 27 dd bc d5 53 c1 3c 33 2d 1d bd 90 da 1d 3d
       -0.02699632 0.023599545 -0.038373183 0.038538516
0000b0 81 42 30 bd 47 32 01 3d 93 af 1a bd ef c8 2c bc
       -0.043032173 0.03154209 -0.037765097 -0.010545953
0000c0 d8 43 05 bc ce 17 99 3c bb c3 d3 bb 89 af 3c bd
       -0.008133851 0.018688109 -0.006462542 -0.04606584
0000d0 81 0c 68 bd f0 f1 52 bb 41 d1 1b bc de 3e 08 bd
       -0.05665255 -0.0032187663 -0.009510339 -0.03326308

Linear.weight f4 [3, 2744]
000000 7b de 9f 3c 25 cd 6e bc d3 9d 82 bb 2a 4a 01 3d
       0.019515267 -0.014575277 -0.0039860993 0.03156487
000010 c1 5c c2 ba d8 a6 00 bc 12 62 79 3c a7 ac 9c 3c
       -0.0014828668 -0.007852279 0.015221136 0.019125296
000020 b7 82 d9 bc e5 0d 07 bd 24 0e 3e 3c 64 2e 9e bb
       -0.026551588 -0.032972235 0.011600051 -0.0048273075
000030 b9 ce 87 bc cf 3c ea bc c6 c6 93 3c 8e 52 30 bc
       -0.016578065 -0.028593449 0.018039118 -0.01076187
000040 0c 9a d5 bc 49 78 e7 bb e4 00 97 bc b4 28 e7 bb
       -0.026074432 -0.0070638997 -0.018433042 -0.0070544127
000050 79 13 9a bc d7 0f 02 3d f3 87 1d bd 85 af 3a bd
       -0.018808113 0.031753387 -0.03845973 -0.045577545
000060 dd e5 8f 3a 4d ae 8d bc 99 9e 3e bb 63 1e a9 3b
       0.0010978539 -0.017295027 -0.002908623 0.005161093
000070 ef d0 06 ba a4 49 ef bb 75 ac d0 ba 50 d2 af bc
       -0.0005142828 -0.00730248 -0.0015920537 -0.02146259
000080 76 6f 63 bc 6c 86 73 bc 75 6f 9c 3c c1 29 36 3c
       -0.013881555 -0.014863592 0.019096116 0.011118353
000090 de 17 6e bd 6d b4 13 bd f5 e5 d3 bc 62 23 fa bb
       -0.05812823 -0.03606074 -0.025866488 -0.0076336125
0000a0 31 4c d4 bc 32 39 ef ba 0a d7 d3 3c 09 97 aa bb
       -0.025915237 -0.0018251298 0.025859375 -0.005205993
0000b0 77 ac 93 bc 29 fc 1c 3c b0 df 74 bc 6e 81 94 3c
       -0.018026574 0.009581604 -0.014945909 0.018128123
0000c0 78 b6 bb 3c de 9a ba 3c d1 e6 48 bd ca 25 01 bd
       0.022914156 0.022778925 -0.04904825 -0.03153018
0000d0 c9 97 1b 3d 9d de 99 3c a7 33 51 bc d2 db 48 3d
       0.03798655 0.018782908 -0.012768663 0.049037762
0000e0 2b 3d a7 3c 85 4e e4 bc d4 b7 ff bc 75 c6 01 bc
       0.02041491 -0.027869472 -0.031215586 -0.007920851
0000f0 be bc 99 bc 32 23 3c bc 7d 37 ba bc 10 f7 bf 3b
       -0.018766757 -0.011483001 -0.022731537 0.0058583096
000100 7c 41 76 bc 67 8a af bc a7 c4 65 bb 2d a4 de bb
       -0.015030261 -0.0214283 -0.003505984 -0.0067944736
000110 0c 72 b8 bb 6e 73 a5 bb 19 62 05 bd 80 be a1 bd
       -0.00562883 -0.0050491607 -0.032564256 -0.07897663
000120 14 53 78 bd 74 15 78 bd a6 fe 32 bd d3 aa ad 3b
       -0.060626104 -0.060567334 -0.043699883 0.005299905
000130 65 1c 81 bc a9 88 85 bc 64 72 81 bd 73 2c 78 bd
       -0.01576061 -0.016300516 -0.063206464 -0.060589265
000140 19 19 42 bd a4 b8 8d bd 2b 93 0f bd 31 ce 54 3b
       -0.047387216 -0.06919983 -0.03505246 0.0032471532
000150 56 87 3b bd ea 14 b7 bd 7e c1 64 bd 14 7a 17 bd
       -0.045783363 -0.08939536 -0.05584859 -0.036981657
000160 ce dc 30 bd 5f 0f 20 bd ff 37 db 3b 90 e3 dc bc
       -0.043179326 -0.03907716 0.006690025 -0.026963979
000170 53 3e 06 bd d2 27 f2 bc 6c 37 38 bb 1f ec 90 3c
       -0.03277428 -0.029560003 -0.0028109206 0.017690716
000180 f4 18 87 3c 20 be 00 3d d6 75 c7 3b bf e8 c7 3b
       0.01649139 0.031431317 0.006087045 0.0061007435
000190 83 35 5a 3c ac 6c 47 3c 04 1d 4c 3c 05 63 f5 3c
       0.013318422 0.0121719055 0.01245809 0.029954443
0001a0 39 81 cb ba 23 97 33 3c de 64 de 3c 07 27 9b 3c
       -0.0015526182 0.010961327 0.027147707 0.018939508
0001b0 65 96 43 3c 00 21 01 3d 44 57 60 3b 58 00 cb 3c
       0.011937712 0.031525612 0.0034231702 0.024780437
0001c0 92 a3 c4 bb 74 13 9a 3c 85 4b 7d 3c 9b ef b4 3c
       -0.0060009444 0.018808104 0.0154599 0.022086909
0001d0 1a 0d e4 3c 0d ad 48 3c ef f6 00 3d c8 95 c5 3c
       0.027838279 0.01224829 0.031485494 0.024119273
0001e0 57 9f 26 3d 54 2f 9b 3c 32 34 bf 3c 7e 49 a9 3c
       0.040679302 0.018943466 0.023340318 0.020664927
0001f0 97 89 2d 3c f3 0f 22 3d 91 68 7a 3c 59 0f 06 3d
       0.010591886 0.03956599 0.01528372 0.03272948
000200 bc 73 b6 3c f7 85 09 3b 5d 35 55 3b b9 ef 0c 3d
       0.022271983 0.002098439 0.0032533028 0.034408305
000210 33 c9 74 3c 86 89 e1 3c 54 4a a9 3c cc 7c 29 3b
       0.014940548 0.027531397 0.020665325 0.0025861738
000220 51 32 ef 3c 91 59 94 3a 94 3f 00 3d 9d 78 bd 3c
       0.029198797 0.0011318197 0.031310633 0.023128802
000230 4e b0 a0 3c 82 00 09 3d e2 72 b0 3c 06 21 56 3c
       0.019615319 0.03344775 0.021539155 0.013069397
000240 18 1c 80 3c 75 e1 6a b9 04 c3 66 3b aa 1c 9b bc
       0.015638396 -0.00022399968 0.0035211453 -0.018934567
000250 15 b5 e3 bc a7 0c 1f bd 0a 90 bf ba c3 9f 9e 3c
       -0.027796308 -0.038830426 -0.001461507 0.01936329
000260 62 48 1d 3c b6 4f 08 3c 45 5e 04 3c e5 7e 0c bc
       0.009599777 0.008319786 0.008079116 -0.008575176
000270 61 84 02 bd 25 12 5d bb 21 aa b5 bb c2 35 a4 bb
       -0.031864528 -0.0033732739 -0.0055439626 -0.0050112912
000280 31 ad 19 3d d1 97 2b bc de 92 8b 3b 38 21 ac bb
       0.037518684 -0.010473208 0.0042594513 -0.0052529834
000290 01 8a ce bc 59 7f 9e bc 60 c0 5a bc e6 81 21 3d
       -0.02521229 -0.019347833 -0.01335153 0.03943052
0002a0 e6 f8 87 3b 44 57 1d bc 51 e6 39 bc 00 fa 0a bd
       0.004149544 -0.009603325 -0.011346416 -0.033929825
0002b0 2d eb 87 bc 20 12 56 ba 8d 82 fb 3c f8 0d 3b bd
       -0.016591633 -0.0008166153 0.0307019 -0.04566762
0002c0 4c 92 fb bc 43 0d 9a bb a9 26 f6 bb 84 03 47 bd
       -0.030709408 -0.004701288 -0.007511933 -0.048587337
0002d0 13 b3 aa bc 19 77 d9 3b 01 28 b5 bc 7e 9a 62 bd
       -0.020837342 0.006636512 -0.022113802 -0.055323116
0002e0 a0 20 49 bd fc 5f fb bb 1f b7 19 bc 1f 7b bb bc
       -0.04910338 -0.0076713543 -0.009382038 -0.022885857
0002f0 09 3c 11 3c c7 c6 88 bb 40 ee 54 bd fe 5c 90 bc
       0.008864411 -0.0041740867 -0.051985025 -0.017622467
000300 f8 80 1e bb c7 c3 8e 3c 2a f1 6a 3c dd 3e 90 3c
       -0.0024185758 0.017427338 0.014339725 0.0176081
000310 90 e1 05 3d 38 45 8a bc a0 13 1d 3c 08 c1 0d 3d
       0.032685816 -0.01687871 0.0095871985 0.034607917
000320 be 52 7d 3b bc 1e 37 3c f2 f5 4f bb 6a 29 29 bc
       0.0038654055 0.011176761 -0.0031732288 -0.010324815
000330 ed 92 81 bc 40 3f f8 bb cb 7a 89 3c ac b3 e9 bb
       -0.01581713 -0.0075758994 0.016782185 -0.0071320143
000340 2f 93 74 bd e6 5a 02 bd b4 2d 22 3b 38 b0 20 bd
       -0.059710678 -0.03182497 0.002474648 -0.039230555
000350 bb 11 08 3b 0c 5e 4a 3a 81 37 a5 bc a2 d2 83 bc
       0.0020762521 0.00077197026 -0.020168068 -0.016091648
000360 50 06 f1 bc 6d dc 8a bb a2 ef 2a bd eb dc 23 bd
       -0.029421955 -0.0042377026 -0.041732438 -0.040005606
000370 eb 24 ea bb e3 73 ca bc 57 07 d6 bb e4 3f 3a bc
       -0.0071455142 -0.024713462 -0.0065316367 -0.011367772
000380 c1 18 a4 bc 9f 92 62 bd d8 ff 7e bd e8 5d 28 bd
       -0.020031335 -0.05531561 -0.06225571 -0.04110518
000390 a4 c1 c9 bc b0 04 27 bd 1f e5 f4 bc 34 60 ad bc
       -0.024628468 -0.040775955 -0.02989441 -0.021164037
0003a0 52 13 9a bd 75 45 be bc 80 7c 33 bd f7 29 d8 bc
       -0.07523216 -0.023226479 -0.043819904 -0.026387198
0003b0 bb 8b b5 bc 25 9a e9 ba 1a 86 cb bb a3 46 8f bd
       -0.022161355 -0.0017822428 -0.0062110545 -0.06995895
0003c0 d8 db 5c bd 53 91 f5 bc 69 c6 32 bc 14 bd 52 bb
       -0.053920597 -0.029976523 -0.0109115625 -0.0032156156
0003d0 1e b8 24 3c f1 c6 2d 3c 30 76 bb bc 64 f3 9d 3c
       0.010053663 0.010606513 -0.022883505 0.019281097
0003e0 c8 3d d6 3c 3e a3 05 3d c6 8f 19 3d cd 25 a5 3c
       0.026152506 0.032626383 0.03749063 0.020159626
0003f0 5f a9 03 bd 86 66 92 bc 0a 67 cb bc e3 8e 05 3c
       -0.032143947 -0.017871153 -0.024829406 0.008151743

Linear.bias f4 [3]
000000 de e0 83 3c ad 67 8b 3c 62 df 06 bd
       0.016098436 0.01701721 -0.03292788
